…
C:\Users\Baskent Yitdb\PycharmProjects\Deep-Learning-Image-Classification\venv\Lib\site-packages\numpy\.libs\libopenblas.FB5AE2TYXYH2IJRDKGDGQ3XBKLKTF43H.gfortran-win_amd64.dll
C:\Users\Baskent Yitdb\PycharmProjects\Deep-Learning-Image-Classification\venv\Lib\site-packages\numpy\.libs\libopenblas64__v0.3.21-gcc_10_3_0.dll
  warnings.warn("loaded more than 1 DLL from .libs:"
Train data shape: (40000, 32, 32, 3) (40000, 100)
Validation data shape: (10000, 32, 32, 3) (10000, 100)
Test data shape: (10000, 32, 32, 3) (10000, 100)
Model: "sequential"
_________________________________________________________________
 Layer (type)                Output Shape              Param #
=================================================================
 conv2d (Conv2D)             (None, 32, 32, 32)        896

 conv2d_1 (Conv2D)           (None, 30, 30, 32)        9248

 max_pooling2d (MaxPooling2D  (None, 15, 15, 32)       0
 )

 dropout (Dropout)           (None, 15, 15, 32)        0

 conv2d_2 (Conv2D)           (None, 15, 15, 64)        18496

 conv2d_3 (Conv2D)           (None, 13, 13, 64)        36928

 max_pooling2d_1 (MaxPooling  (None, 6, 6, 64)         0
 2D)

 dropout_1 (Dropout)         (None, 6, 6, 64)          0

 flatten (Flatten)           (None, 2304)              0

 dense (Dense)               (None, 512)               1180160

 dropout_2 (Dropout)         (None, 512)               0

 dense_1 (Dense)             (None, 100)               51300

=================================================================
Total params: 1,297,028
Trainable params: 1,297,028
Non-trainable params: 0
_________________________________________________________________
Epoch 1/50
625/625 [==============================] - 86s 134ms/step - loss: 4.1701 - accuracy: 0.0614 - precision: 0.3900 - recall: 0.0025 - val_loss: 3.6810 - val_accuracy: 0.1416 - val_precision: 0.6222 - val_recall: 0.0056
…
